model_2249.pt (torch, 983925 bytes, 48 tensors)

std f4 [12]
000000 0e d9 1b 41 c6 4d 1f 41 5b b7 1f 41 dd c4 1e 41
       9.740492 9.956488 9.9822645 9.923062
000010 7e ca 56 41 92 de 6b 41 b3 f4 36 41 d1 bb 2a 41
       13.424437 14.741838 11.434741 10.670854
000020 11 2d 74 41 76 6e 74 41 81 cf 78 41 a3 83 76 41
       15.261003 15.276968 15.55066 15.407138

actor.0.weight f4 [128, 48]
000000 2d 15 33 bd ad 8b 54 be d7 8d 7f 3f 83 0b 77 3e
       -0.043721367 -0.20756407 0.99825805 0.24125485
000010 59 b8 2d be fa 18 a0 bd 3f 8d 39 bf 20 d6 3a 3e
       -0.16964854 -0.07817264 -0.7248115 0.18245745
000020 c1 f0 af be f1 85 e1 be 64 17 e4 3e 55 0a ba be
       -0.34363368 -0.44047502 0.44549096 -0.36336008
000030 e2 d5 79 3e 59 09 84 3f 86 6f d0 3e 5f fc 87 3e
       0.24397996 1.0315353 0.40710086 0.2655973
000040 ae bc c1 bd cf 74 62 bf f7 1c 66 be 0a b2 d9 3c
       -0.09459816 -0.88459486 -0.22471987 0.026574153
000050 f0 6b 8e be 72 b1 ce be 52 e9 f2 be ec 59 c9 be
       -0.27816725 -0.40369755 -0.47443634 -0.39326417
000060 7c 82 53 3d 9a 8a 8a bc 67 52 65 3d a7 bf d1 bc
       0.05163811 -0.016911794 0.055986788 -0.025604082
000070 4b 9d cb 3d 78 bd 09 3e e6 12 a1 3d 9e 9e f2 bd
       0.09942111 0.13451183 0.07864933 -0.1184666
000080 13 68 bf 3d d0 8b 10 be d6 b3 80 3a c5 55 f5 3c
       0.093460225 -0.14115834 0.000981922 0.029948125
000090 85 2f fa 3d c4 dd da 3e fb 2d f3 3e 78 ab 90 3e
       0.12216095 0.4274732 0.47496018 0.2825582
0000a0 be 1c 56 3e c2 b3 dc 3b 4c 4a a1 3c e1 c6 ff bd
       0.20909402 0.006735296 0.019688748 -0.12489105
0000b0 aa 97 0f be 7c c0 4b 3d 3e 6d 13 3d e9 70 a5 bd
       -0.14022699 0.049744114 0.035992853 -0.080781765
0000c0 20 ad 87 3e 7b ab 0a be 3e 7e 84 3e ae 77 7b 3e
       0.2649927 -0.13541977 0.25877565 0.24557373
0000d0 a2 db cc 3e 3b e8 53 bf fb eb 93 3f 15 f0 0c be
       0.40011317 -0.8277623 1.155639 -0.13763459
0000e0 7e 56 bd 3d 49 32 fd be 35 0d bf 3e fa a9 92 bf
       0.09245013 -0.49452427 0.37314764 -1.1458123
0000f0 5d 78 bd be 0d a0 8a bd 23 19 be bd 06 bb 0f bd
       -0.37005892 -0.067688085 -0.09282138 -0.03509047
000100 be 7b 85 3e 19 cb e3 be a6 30 8b 3d 9d ca 35 bf
       0.2607097 -0.4449089 0.06796388 -0.7101229
000110 be 63 30 3e 95 5e 57 be 17 21 33 3e 6f 28 48 3f
       0.17225549 -0.21032174 0.17493092 0.78186697
000120 4f e4 11 be 66 97 a3 3d 9c 07 11 3d fe 49 5b 3e
       -0.14247249 0.07987861 0.035407647 0.21414945
000130 9b 09 cb 3c 2c a5 a0 bd d1 b1 6e 3d 96 d2 11 3e
       0.024784854 -0.07844004 0.058275048 0.14240488
000140 ca b7 57 bd c2 9c ff 3d 89 2f cf bd 38 1e 8d 3d
       -0.05266551 0.12481071 -0.101164885 0.068905294
000150 74 c2 14 3e f0 9f 99 3e 37 10 00 bf 34 c9 10 bf
       0.14527303 0.30004835 -0.5002474 -0.5655701
000160 11 85 cd 3d c0 fa 91 be ff d9 1a be 68 8a 74 bd
       0.10035146 -0.2851162 -0.15122221 -0.059702307
000170 d8 04 ad bd 9e d2 7c 3e 73 21 77 bd 53 ec 31 3e
       -0.084481895 0.24689719 -0.060334634 0.17375307
000180 e1 0e 6a 3e ea d3 5c 3b 97 7c de bf a8 00 3f 3e
       0.22857238 0.0033695647 -1.7381772 0.18652594
000190 93 dc 75 3d be 99 0b 3e fb 6a 7d bf 2e 8a f3 3d
       0.06002481 0.13632867 -0.98991364 0.1189159
0001a0 45 5d 90 3e bb 03 b5 be 83 f4 8c 3f dc 5a 40 be
       0.2819616 -0.3535441 1.1012119 -0.1878466
0001b0 7e f1 7d 3d be 50 92 3e 49 09 a5 3e 81 02 8e 3e
       0.061997883 0.28577226 0.32233647 0.27736285
0001c0 77 8d 9e bf aa 91 12 bf bd 60 f0 be b8 b5 3b be
       -1.2386922 -0.57253516 -0.46948805 -0.18331039
0001d0 f5 39 2e 3f db 2f 7c 3f fd ac 01 3e cf 2f 75 3e
       0.68057185 0.9851052 0.12663646 0.23944019
0001e0 1b e6 73 bd 0c e1 47 3e 6d 0b 99 3d 3f 96 51 3d
       -0.059545618 0.19519442 0.074728824 0.051168676
0001f0 c5 21 56 be 6c 06 86 bc 24 4e ad 3d 0b 2b a1 bc
       -0.2091132 -0.016360484 0.0846217 -0.019673845
000200 ed 58 44 3d e9 83 59 3e e4 f8 71 3d 47 e6 e8 3c
       0.04793637 0.21241726 0.05907525 0.028430117
000210 6c 30 88 3e 76 d4 fa 3d a8 4f 15 be e4 0e c0 3c
       0.26599443 0.12247555 -0.14581168 0.0234446
000220 cb fd 61 be 54 04 f2 be 89 05 a4 bd 34 1a a9 3d
       -0.2206947 -0.47268927 -0.08008868 0.08256951
000230 9a 87 b4 bc c2 e9 bf 3e 24 7a 26 be db 07 ac bc
       -0.022037316 0.3748303 -0.1625753 -0.02099984
000240 c0 bb 22 3d 12 7e bb be 37 15 c2 bf 16 9c 30 3d
       0.039729834 -0.36619622 -1.5162724 0.043117605
000250 e6 a9 f1 bd a7 97 72 be 5c 1b a6 3f 75 c1 a9 bf
       -0.11799984 -0.23690663 1.29771 -1.3262163
000260 59 13 2d 3e 9e 53 b6 3e 57 ee 2d 3f 55 7b 22 be
       0.16901912 0.3561067 0.679418 -0.1586736
000270 d9 df 23 3f e3 60 b0 bd 77 fa 23 bf 5a 96 12 3d
       0.6401344 -0.0861223 -0.64054054 0.035787918
000280 0e f7 b2 be 0a 8d 24 bf 0c 61 db be 92 d8 78 3e
       -0.34954113 -0.6427771 -0.42847478 0.24301365
000290 bc 3f a1 3e 72 11 e6 bd 21 cb ff 3d d4 99 24 be
       0.31493938 -0.11233796 0.12489916 -0.16074306
0002a0 d3 1d d6 3c 09 4c 43 3d 30 0c 90 3e 8f e6 17 be
       0.026137268 0.047679935 0.28134298 -0.14834045
0002b0 b4 64 c3 3d 27 fd 03 be 1c aa 9a be 45 ba 1c 3d
       0.09540692 -0.12889539 -0.30207908 0.038263578
0002c0 1c c8 29 be 4d de 59 3d c5 65 c2 3d c9 6a 70 bd
       -0.16580242 0.05319052 0.09492067 -0.05869559
0002d0 97 eb 3b bf 69 fa a3 3a 30 a7 fe 3e e6 e2 04 be
       -0.73406357 0.0012510541 0.4973693 -0.1297718
0002e0 c4 37 85 be ef 57 b7 3e c9 e9 8d 3c a9 1c e4 be
       -0.26019108 0.35809276 0.017323392 -0.44553116
0002f0 44 4d c9 3c 8e fe aa 3e 08 f6 18 bf 75 03 07 3f
       0.024572976 0.33397335 -0.59750414 0.5273965
000300 ea 57 54 3f 1b a6 0a bf 14 c1 2e 3f a6 f2 e5 3d
       0.82946646 -0.54159707 0.68263364 0.11227922
000310 90 d1 f2 bd 8d 28 42 3e f0 95 2f bf 2e f0 5e be
       -0.11856377 0.18960781 -0.6858816 -0.21771309
000320 e2 08 04 3e f8 12 09 3b 17 47 de 3d 9e cb 1e 3f
       0.12894014 0.0020915847 0.10853403 0.62029445
000330 2f 8a 72 be b2 e2 c2 3e bd 8f ca 3d 0c 82 d2 be
       -0.23685525 0.3806358 0.09890697 -0.41114843
000340 54 a5 df 3d ac 55 1b 3f 10 3a 4e bf a8 9c 9a 3c
       0.10920206 0.606776 -0.80557346 0.018873528
000350 20 12 03 3f 3a d7 4d 3f a2 07 73 3f 8f 7f a6 3e
       0.5119953 0.80406535 0.9493352 0.32519194
000360 9d 17 17 bd 29 cf 98 3e c3 cb 5c bd 73 a7 d4 3d
       -0.036887754 0.2984555 -0.05390526 0.10383501
000370 5c a7 ec 3c e6 68 1a 3e e0 c4 8f bd ab 8f b7 bd
       0.028888397 0.15079078 -0.07019973 -0.08962949
000380 7e 02 a3 3d ac fd b5 3d bd 6d a1 3d 4a ef f5 bd
       0.0795946 0.08886275 0.07882259 -0.120085314
000390 db 51 96 3e eb f7 c5 3d c8 3d 21 3d 9a 2a a1 3d
       0.29359326 0.09666427 0.03936556 0.07869454
0003a0 92 5c 33 3d 4b 45 e8 bd 9c ca 6f 3e 17 33 2a 3d
       0.043789454 -0.113413416 0.23417133 0.04155263
0003b0 a3 96 4b 3d 1a 6e cc 3e ff 36 41 3f 5a 9b 5d bc
       0.049704205 0.3992775 0.7547454 -0.013525808
0003c0 e2 2b ac be dd b4 4f 3d ad af 9c 3f 3b f7 0b 3e
       -0.3362723 0.050709594 1.2241112 0.1366853
0003d0 a9 45 b0 be 1f 33 ba be f1 b9 50 bf 46 33 65 be
       -0.34428146 -0.36367127 -0.81533724 -0.2238284
0003e0 c2 ca 81 bd aa 79 3f 3f 8f 18 27 be 21 f2 8d 3f
       -0.06337501 0.7479502 -0.16317962 1.1089517
0003f0 d2 c5 9f bf 2b e8 e7 3d 87 0c 00 3f 61 2d b5 be
       -1.2482245 0.113235794 0.50019115 -0.35386184

actor.0.bias f4 [128]
000000 28 5b f0 3e 4f 97 50 bd ff 9e ad be a7 f3 f2 ba
       0.46944547 -0.05092555 -0.33910367 -0.0018535749
000010 ad e0 dc bd bc 68 0a bd 0e 9d 22 be 30 85 3a 3e
       -0.10785041 -0.03379129 -0.15880224 0.1821487
000020 65 b9 ab 3d 2d bc 80 3d 4d 65 db 3d e6 f6 95 3d
       0.083849706 0.06285892 0.10712681 0.07322483
000030 87 f4 05 3e 5e 5d 07 be bf b2 dd 3c fb 27 68 bd
       0.13081561 -0.1321921 0.027062772 -0.056678753
000040 d1 92 8e bd 1d 7a f5 bb e4 a5 02 3d a0 6d 2f be
       -0.06961597 -0.0074913637 0.031896487 -0.17131662
000050 47 55 79 be 6a 54 6e be 75 e1 98 3e 59 dc c1 3e
       -0.24348937 -0.23274389 0.2985951 0.37863424
000060 7c 22 a4 3e eb 36 bc 3d ca 80 91 be bb 35 ed 3d
       0.3205756 0.09190162 -0.2841857 0.11582514
000070 9a 07 18 3e 2b 17 be bd e9 45 21 3e d3 ec 9e 3c
       0.1484665 -0.09281763 0.15749325 0.019400036
000080 bf f8 89 3d 43 91 c8 bd fe 1f 9b bd 82 74 0f 3d
       0.06736898 -0.097933315 -0.075744614 0.03502322
000090 63 a1 ae bd 04 2b ef bd 94 66 7a be 04 39 32 be
       -0.08526876 -0.116781265 -0.24453193 -0.17404562
0000a0 d6 cc a3 3d 39 c9 05 be 27 76 51 3e 2e 18 01 3e
       0.07998054 -0.13065042 0.20455228 0.1260688
0000b0 57 f1 20 be f9 ef 18 bd 27 e6 b3 3d 5b b0 02 bd
       -0.15717064 -0.03733823 0.087841325 -0.031906467
0000c0 e8 10 ab bd 4b 95 81 3e 17 af ee bc 1b be bc bc
       -0.08352834 0.25309214 -0.029136224 -0.023039868
0000d0 73 dc 2c 3d 82 7d 5c bd e5 6e 1d 3e a7 25 f0 3c
       0.042202424 -0.05383063 0.15374334 0.029314829
0000e0 18 f9 b7 3d 00 12 36 3d a5 27 85 3e e7 cc 3b be
       0.08983058 0.04445076 0.2600681 -0.18339883
0000f0 c6 7e ae bd 7f 59 90 3e 07 71 8d ba 80 d3 d3 bd
       -0.08520274 0.2819328 -0.0010791131 -0.10343075
000100 95 4e a3 3d 7a c5 07 3e 67 b0 73 bd 1a ef 87 3d
       0.07973973 0.13258925 -0.059494402 0.06637402
000110 73 6c 7d 3c b3 43 09 be 0a 66 11 be af c2 81 3e
       0.015467751 -0.13404731 -0.14199081 0.25343844
000120 fc 0e 09 3e 08 56 73 3c 75 11 1c 3e 96 0e 7e 3e
       0.13384622 0.014852054 0.15241034 0.24810252
000130 2d 17 af bd 9e 7f 6b 3e f6 c1 95 3d 82 e8 f2 3d
       -0.08549342 0.22997901 0.07312386 0.118607536
000140 1e 6e b1 bd b6 2c 03 bf 7c 9a 4c 3e 56 75 fb 3d
       -0.08663581 -0.512401 0.19980806 0.122782394
000150 c9 a3 7a 3e b4 3a 77 3e 9a b9 ba be da d1 0e 3e
       0.24476542 0.24143487 -0.36469728 0.1394724
000160 18 b5 05 be 97 92 95 be bb a8 6f be d2 cc e0 3c
       -0.13057363 -0.29213402 -0.2340421 0.027441416
000170 73 ff 46 3e 90 89 0a be 38 33 a3 3e bb f6 50 be
       0.19433384 -0.13529038 0.31875014 -0.2040662
000180 ad b0 03 be 22 39 2b 3e 55 4a ef 3d c5 78 68 be
       -0.12860365 0.16721013 0.116840996 -0.2270232
000190 3b 80 1f 3e 73 15 35 3e fd 61 38 3e 50 9a 24 3e
       0.1557626 0.17683963 0.1800613 0.1607449
0001a0 c4 0f fe 3d 41 f2 04 3e f6 61 48 3e f4 d3 3e bd
       0.12405351 0.12983038 0.19568619 -0.046588853
0001b0 d1 bd 04 3f 95 98 91 3e e4 6a eb 3c 62 af 1f be
       0.51852137 0.28436723 0.028737493 -0.15594247
0001c0 11 64 c8 3c 35 f7 17 3d 00 84 d1 3b 95 63 40 3e
       0.024461778 0.03710099 0.0063939095 0.18787988
0001d0 cd 75 5d be 60 60 5c 3e 02 a4 b3 3d 53 73 49 be
       -0.21626969 0.21521139 0.087715164 -0.19672899
0001e0 fa a3 92 3e 93 a2 10 bd f4 7d 3d be 1c 8e cc 3d
       0.2864073 -0.035311293 -0.18505079 0.09988043
0001f0 98 b9 8a 3e 37 00 16 bf e4 56 43 be 32 39 74 bd
       0.27094722 -0.5859408 -0.19076115 -0.05962486

actor.2.weight f4 [128, 128]
000000 ce 13 06 bd 42 f7 3e bd 2b ed 10 bd d4 f8 9b be
       -0.03273373 -0.046622522 -0.03538243 -0.30463278
000010 5e d2 88 be 7e 60 9a be aa da 60 3d 5e f6 f0 3d
       -0.26722997 -0.30151743 0.054896034 0.11765741
000020 8b e4 b8 3d 24 ff 8f bd 95 0f 14 3e fc c1 69 bd
       0.09027966 -0.07031086 0.14459069 -0.057069764
000030 c0 e0 06 3e 54 83 4e 3e 86 d4 5f be 02 04 e6 be
       0.13171673 0.20167285 -0.21858415 -0.44924933
000040 f3 22 6a bd d9 c0 81 be 4d 9c bb bd 0f b6 79 be
       -0.057162236 -0.25342444 -0.091606714 -0.24385856
000050 24 a3 3d bd 15 df bd 3d a4 83 37 be e3 4e 16 be
       -0.04629816 0.09271065 -0.1792131 -0.1467853
000060 d1 65 f9 bd 01 ce 83 bd c9 ae fc 3c 1c 9e 74 3d
       -0.12177623 -0.064357765 0.030845063 0.059721097
000070 11 69 20 be 0e fe e6 bd 86 c5 8d be b7 a3 bc 3d
       -0.1566508 -0.11278926 -0.2768976 0.09210914
000080 fa 9e 55 be a8 57 0e 3b 13 b4 7c be 4d 6c f8 3d
       -0.20861426 0.0021719728 -0.24678068 0.12130032
000090 80 69 44 bd 46 9f 8f bd f9 53 9b bc 50 11 8c 3e
       -0.047952175 -0.07012801 -0.01896094 0.27356958
0000a0 1c 92 8a be ec a0 17 3e a6 f3 07 3c 8f bd b2 bd
       -0.27064598 0.1480748 0.008297836 -0.08727562
0000b0 78 6d 9a bd 00 b1 2d 3c 1d 95 0f be 50 28 04 3e
       -0.07540411 0.010601282 -0.14021726 0.12906003
0000c0 a0 58 29 be 4b 94 0e 3c 4f 2b 0d 3d 6f c2 95 be
       -0.16537714 0.008702348 0.03446513 -0.29249904
0000d0 07 61 9e bc 42 21 4e be 73 12 87 3d 39 88 1a be
       -0.019333376 -0.20129874 0.06595316 -0.15091027
0000e0 1e 5f 2b bf ba 24 b7 bd fc 4d 0e bf 59 5c 2c 3e
       -0.6694201 -0.08942552 -0.55587745 0.16832103
0000f0 43 2c e1 bc cc fd 0f bc 46 51 39 be 0e f3 5c bd
       -0.027486926 -0.008788537 -0.1809741 -0.053942733
000100 ee c3 85 bd f3 2e 1e 3e 3f 49 63 be fc 10 f1 be
       -0.06531511 0.15447597 -0.2219591 -0.4708327
000110 a1 b9 c1 bd 9b b0 68 be fa c4 01 3c ad 03 3d be
       -0.09459234 -0.2272362 0.007920498 -0.18458433
000120 24 1d 80 bd 08 bd 68 be ed 58 7f 3d 5b 33 50 be
       -0.06255558 -0.2272836 0.062340666 -0.2033209
000130 1d c4 a5 be 35 67 8f be bc c5 00 3e 48 c9 25 bd
       -0.32376185 -0.28008428 0.1257543 -0.04047516
000140 58 e9 b1 3e 9a 7c bc 3d 05 2a 9e be 85 df ad be
       0.3474834 0.09203453 -0.30891433 -0.33959594
000150 8e f3 15 bf 35 61 a6 bd 57 09 52 be 7e c5 1b be
       -0.5857476 -0.081240095 -0.20511375 -0.15212056
000160 0e 67 f0 bd 38 1c 49 3e a1 c0 8c 3e f9 cb 71 bd
       -0.11738406 0.19639671 0.27490714 -0.059032414
000170 1f 34 dd bd df dc da 3d 5f 0e 14 be a8 98 14 bf
       -0.10800957 0.10686659 -0.14458607 -0.58045435
000180 5e b2 ae be 82 ab e3 bc aa d6 28 be ec 34 2d be
       -0.34120458 -0.027791742 -0.16488138 -0.1691472
000190 bc 96 ba 3d 6a 75 39 bd bb 63 dd bd 1d 51 b6 be
       0.091107816 -0.04527799 -0.10810038 -0.3560876
0001a0 a6 2a 8a 3e ae f5 c7 be 0b b3 7c 3d fe 19 68 3c
       0.26985663 -0.39054626 0.061694186 0.014166353
0001b0 59 81 05 bf 70 1e fc be ae 9e 51 be 87 29 37 3e
       -0.52150494 -0.49241972 -0.20470688 0.17886935
0001c0 08 a1 3d be b6 5c 53 3e 70 82 44 3d 7c 73 14 be
       -0.1851846 0.20640835 0.047975957 -0.14497179
0001d0 30 ed 88 3e 4a ff 89 be 9f dc d4 bd 80 a6 d9 3e
       0.2674346 -0.26952583 -0.10393643 0.42509842
0001e0 6e a1 7b 3d c9 f9 88 be e9 f5 09 3e 8e b1 e8 be
       0.06143325 -0.2675307 0.13472714 -0.45447963
0001f0 66 fc aa 3d b6 c5 14 3d 2e 79 8a bd 76 23 c0 bd
       0.083489224 0.036321364 -0.067613944 -0.09381764
000200 40 bf e5 bd 85 a0 64 be 1d 83 84 be e3 a7 19 3e
       -0.11218119 -0.22326858 -0.25881281 0.1500545
000210 91 9a ea 3d cb 9e e5 3c 97 ed af bd 29 d7 d8 3e
       0.114552625 0.02802982 -0.085902385 0.42351654
000220 62 ab aa 3e 40 4f 6e 3e 3f 8f d9 3e 05 3f b7 3e
       0.3333388 0.23272419 0.424921 0.35790268
000230 e1 47 5c be 3b a5 0a 3e a3 41 78 bd c5 3b 9a be
       -0.21511795 0.13539593 -0.06060947 -0.30123726
000240 50 c9 2d be 1d ee 22 be 28 23 6e 3d e2 22 d3 be
       -0.16971326 -0.15911146 0.058138996 -0.4123755
000250 db a5 a8 3d b6 14 95 bd 58 90 6f 3e 7e 33 0e 3c
       0.082347594 -0.07279341 0.23394907 0.008679269
000260 d2 63 8a bc a3 97 ed 3d ff 38 95 3d 97 eb 0c be
       -0.016893301 0.11601188 0.07286262 -0.13761745
000270 55 af 00 3e 77 8d 29 3d 52 ba 24 3e 71 ba b5 bd
       0.12566884 0.041394677 0.160867 -0.088734515
000280 0a 8b d1 bd be 44 9d bc 31 61 51 3e 93 b5 be 3e
       -0.10231598 -0.019197818 0.20447232 0.37247905
000290 2b 9b cf 3e 98 c2 c4 bd dc 8f a2 bd ae f1 1a be
       0.4054807 -0.09607428 -0.07937595 -0.15131256
0002a0 07 97 a0 be 05 d6 9e be 90 fd 6f 3e 3a 29 6a bd
       -0.31365225 -0.3102266 0.2343657 -0.057168223
0002b0 c6 0f ae 3c 28 85 03 3e d3 26 66 3d 0f 82 81 be
       0.021247756 0.12843764 0.05618937 -0.2529454
0002c0 32 f4 82 3d 37 17 3c 3e 2c de 81 3e 49 fd 19 bf
       0.06394233 0.18368231 0.25364816 -0.6015211
0002d0 96 db 4a 3d 7f ae 6c bf 77 7c f2 3d 24 b9 3b be
       0.04952582 -0.9245376 0.11840146 -0.18332344
0002e0 e2 a4 9b be a8 ea b5 3e 19 88 38 be 3e 2e 17 3d
       -0.30399233 0.3553059 -0.18020667 0.036909334
0002f0 33 41 b8 3d 2d ae 06 3f 29 af a9 bd 82 25 4e be
       0.08996811 0.5260952 -0.08285362 -0.20131496
000300 ed 09 05 3f 92 e1 24 3e 74 52 0b 3e 3e e8 9f 3d
       0.5196827 0.16101673 0.13605672 0.078079686
000310 cd 24 52 be 5c 55 bb 3d d2 9f 75 3e 22 36 7d be
       -0.20521851 0.091471404 0.23986748 -0.24727681
000320 64 4c 17 3e 9d 0c 99 3b 6b e0 01 3f a7 cf 02 be
       0.14775234 0.004670693 0.5073306 -0.12774526
000330 2f dd 6f be a7 7b e5 bd e2 45 4f 3e 54 5c 92 be
       -0.23424219 -0.112052254 0.20241502 -0.28586066
000340 33 50 86 be 80 14 11 bd 64 0e 83 3d 5e 75 22 be
       -0.26233062 -0.03541994 0.06399229 -0.15865085
000350 b9 85 54 3e 87 2f 31 3e 25 60 b1 be 8d 63 93 3e
       0.20754136 0.17303286 -0.34643665 0.2878689
000360 14 e4 93 3b 18 ef 62 be 32 5e 6b 3e eb df 96 3d
       0.004513273 -0.2216152 0.22985151 0.07366928
000370 3a 09 d6 be 55 18 27 be 63 61 b0 3d 7e f9 1f 3d
       -0.41803914 -0.16317876 0.08612325 0.039056294
000380 8c f3 1d be ab cf 55 3e 83 4b 28 3e 09 1e 03 be
       -0.15424937 0.2088 0.16435055 -0.12804426
000390 92 a8 be bc f1 ff 5b be f7 c5 d6 3d d1 23 8a be
       -0.02327374 -0.21484353 0.104869775 -0.2698045
0003a0 f3 99 f6 3d 40 12 e8 be d4 ca 97 be 66 09 01 bf
       0.12041082 -0.45326424 -0.29646933 -0.50404966
0003b0 fb 22 56 be 36 75 ee bd 1e 2a 27 be 11 22 05 be
       -0.20911781 -0.1164345 -0.1632466 -0.13001277
0003c0 2d 13 71 be c8 bb 78 3e 78 f9 66 3e 85 31 06 3e
       -0.23542471 0.24290383 0.22556102 0.13104828
0003d0 dd 1c 56 be 12 d4 1f 3d 9f 26 93 be 7e e8 94 3e
       -0.20909448 0.039020605 -0.28740403 0.29083627
0003e0 3d 7e 88 3e 7e 19 eb bd 33 4d d1 be ff 3a d8 3d
       0.26658812 -0.114794716 -0.4087921 0.105581276
0003f0 0b 5f c5 bc 04 04 2a 3e 5a df 25 be e7 80 db 3d
       -0.024093172 0.16603094 -0.16198483 0.107179455

actor.2.bias f4 [128]
000000 b2 cc cb be 34 ed 9a bb 02 a4 90 3c 64 89 bb bd
       -0.39804608 -0.004727984 0.01765633 -0.091570646
000010 1a 39 c1 be 5a 7b 72 be f5 9d af be 48 37 58 3e
       -0.37738878 -0.23679867 -0.343002 0.21114838
000020 af 9b b2 bc 39 f2 42 be fb 9e 7d be 46 a5 7a 3d
       -0.021802751 -0.19037713 -0.24767677 0.061192773
000030 49 49 7d be 66 ad 6b bd 93 ec 57 3e 40 e5 a1 bd
       -0.24734987 -0.057538413 0.2108634 -0.07905054
000040 e9 f5 85 3d 69 e9 1a 3b ce e9 bc be 22 f0 3e 3d
       0.06541044 0.0023637658 -0.3689713 0.046615727
000050 4b 07 ab be 38 33 07 3c 1b 6e 6a 3d ad d3 95 be
       -0.33404002 0.008251958 0.05723391 -0.29263058
000060 07 9c 16 be 2d 1f 83 bd 90 86 9d be b7 69 2e 3e
       -0.14707957 -0.06402431 -0.30766726 0.17032515
000070 c9 9b 93 be bf 11 b8 3c 05 8c c0 be 4f b8 b1 be
       -0.28829792 0.0224694 -0.37606826 -0.3471093
000080 73 23 25 3e e8 bf 25 3e 6d 9d b6 bd 05 f1 8f 3c
       0.16126804 0.16186488 -0.08916745 0.017570982
000090 1c 81 9b be e0 ca ed bd cf 0a 39 be 0d 6d 81 bd
       -0.3037194 -0.11610961 -0.1807053 -0.06319628
0000a0 30 30 1e bd 52 a0 c7 3d b9 be 2c be 67 ad 83 be
       -0.038620174 0.097473755 -0.1686963 -0.25718233
0000b0 86 4b 5a be d0 87 a9 bd 68 a8 4e be ac 56 f3 bd
       -0.21317872 -0.08277857 -0.2018143 -0.11881766
0000c0 b5 81 41 bc ea fd 71 3d de 4c f2 3c d3 8f fb bd
       -0.01181071 0.059080042 0.029577669 -0.12283292
0000d0 80 14 b3 3d 43 0d 35 bc c1 b3 d8 bd d5 d4 31 be
       0.087441444 -0.011050525 -0.1058116 -0.17366345
0000e0 35 30 f5 3c a2 7d 58 3d 18 da 19 3d fa 3a d3 be
       0.029930213 0.052854188 0.037561506 -0.41255933
0000f0 c7 bc b9 bc ef d8 9d be 5f fb eb 3d 27 bd 02 3e
       -0.022673024 -0.3082957 0.115225546 0.12767468
000100 15 e8 da bd d7 c4 84 be 24 11 df be d9 c0 17 3e
       -0.106887974 -0.25931427 -0.43567765 0.1481966
000110 bf cb 8e be da a8 61 bd 2d a9 05 be 4d ae 0a be
       -0.2788982 -0.05509267 -0.13052817 -0.13543053
000120 ad 63 71 3e c4 fb 94 be db 74 b5 3c 18 d5 4e be
       0.2357318 -0.29098332 0.022150448 -0.20198476
000130 f1 33 8f 3e 86 19 47 3e 62 b1 12 be a7 07 10 be
       0.27969316 0.1944333 -0.14325479 -0.14065419
000140 b6 a9 4e be c2 0f 17 3d 03 92 34 bd a5 1c 2c 3e
       -0.20181927 0.036880262 -0.04408456 0.16807802
000150 31 58 ac bd 41 de 8b bb 4c 4e 4b be 8e 13 3f be
       -0.08415259 -0.004268438 -0.19854087 -0.18659803
000160 92 9e 8f bd 11 fe fc bd 13 9d b3 3e 6c 4e 8c be
       -0.07012667 -0.12353147 0.35080776 -0.2740358
000170 c4 14 0d be 3a b2 a8 be 64 39 40 3e 13 e9 ce be
       -0.13777453 -0.32948476 0.18771893 -0.40412197
000180 d8 8e 2c be 32 f0 52 be c6 af 3a be 9d f3 f3 bd
       -0.16851366 -0.2059944 -0.18231115 -0.119117
000190 31 e0 ae bd d9 39 a3 be 14 20 d6 be 62 cc b8 3d
       -0.08538855 -0.31880072 -0.4182135 0.09023358
0001a0 d1 8c 71 3c 4b d1 2c 3c ba 20 c5 be 74 36 32 be
       0.014743046 0.010547946 -0.3850153 -0.17403585
0001b0 59 12 9b be a5 a4 0f be 79 50 75 bd 20 89 b0 bd
       -0.30287436 -0.1402765 -0.059891198 -0.086199045
0001c0 0a 2b 11 be 05 28 79 3e 58 82 29 be 50 b6 d2 bd
       -0.14176574 0.24331672 -0.16553628 -0.102886796
0001d0 b8 a7 d1 be c1 1c 23 ba f9 71 a1 be 56 ad 1f be
       -0.40948272 -0.0006222241 -0.31532267 -0.15593466
0001e0 ac f2 8a be 5a b8 2e 3c a5 7b 2c bd fe c6 7f 3e
       -0.2713827 0.01066407 -0.042110104 0.24978253
0001f0 1d 2e 8b be 69 d7 36 3e 93 77 42 3d 75 c0 30 be
       -0.2718362 0.1785561 0.047477316 -0.17260917

actor.4.weight f4 [128, 128]
000000 33 d3 88 3e 41 25 ac 3c a4 d1 b0 be 0d 27 0e bc
       0.26723632 0.021013858 -0.34534943 -0.008676303
000010 5b 83 bf 3d e2 97 23 3e de 78 ad be c1 96 1a 3e
       0.09351226 0.15975907 -0.33881277 0.1509657
000020 e8 73 ae bc a5 75 99 be 49 94 05 be e9 c8 dc 3d
       -0.021295503 -0.29972568 -0.13044848 0.10780508
000030 85 37 02 bd ac 7d 9e 3e b6 2f aa 3d 0d 79 88 3d
       -0.03179123 0.30955255 0.083098814 0.066637136
000040 2e cd ae 3d 9d 94 c8 3c 0b 88 d4 3d 5f bf 0a bc
       0.08535229 0.024484927 0.10377511 -0.008468478
000050 6e ac 06 be f8 8c 3c 3c 99 14 15 bd a6 36 96 3e
       -0.13151714 0.011508219 -0.036396597 0.29338568
000060 1a bf 9d bc fc 36 4d 3e 56 d3 e0 3e 0a 18 fe 3d
       -0.019256163 0.20040506 0.43911237 0.12406929
000070 e5 a4 84 bc d8 0f 22 3a ac d8 14 3f c0 a8 8e 3e
       -0.01619191 0.00061821705 0.58143115 0.2786312
000080 0d f0 e5 bd c4 f5 48 3e 82 ff 9c 3d 5a 13 4a 3d
       -0.11227427 0.19625002 0.07665922 0.04933486
000090 18 78 78 3d b0 28 25 bf bf 1a 35 be 94 83 b2 3b
       0.060661405 -0.6451521 -0.17685984 0.0054478142
0000a0 0b 00 59 3e 1a f1 79 be 25 6a b5 3e 0e e7 55 3e
       0.21191423 -0.24408379 0.35432544 0.20888922
0000b0 75 8c 78 3e 93 30 c2 3d e7 c5 aa be 8d 37 71 be
       0.2427233 0.09481921 -0.33354113 -0.23556347
0000c0 c5 e0 a9 bd 92 a0 9a 3c ff f3 62 be fa b1 4e 3e
       -0.082948245 0.018875394 -0.2216339 0.2018508
0000d0 ca 05 a3 bd 8f 4f e5 be 97 60 00 be 44 52 af bd
       -0.079600886 -0.4478726 -0.12536846 -0.08560613
0000e0 69 35 84 3e 82 3b 99 be ff 47 f8 3e df 44 0f 3e
       0.25822 -0.29928213 0.4849243 0.13991116
0000f0 ea da c5 3e 4e f3 c7 3d 0a c0 9d bd 0b 42 e6 be
       0.3864358 0.097632036 -0.07702644 -0.44972262
000100 4a 1b 9d 3e ea f8 63 be 78 41 f1 3e 02 36 10 bd
       0.30684882 -0.22262922 0.4712026 -0.035207756
000110 82 a3 83 3e e7 24 d5 bd ac f2 1e bd 6a 75 34 bd
       0.25710684 -0.10407429 -0.03880565 -0.044057287
000120 40 bb 3b 3d f1 bd f4 3e f9 b7 6c be be 2b 3a bf
       0.045832872 0.47801164 -0.23117055 -0.72722995
000130 9c 49 c7 3c 99 ad 2c be 8d d0 7c 3e cb d3 35 3e
       0.024327092 -0.16863097 0.24688931 0.17756574
000140 2e 3b bd bd b2 88 93 be c4 fb 90 3e 27 53 49 be
       -0.09239803 -0.28815228 0.28317082 -0.19660626
000150 47 d2 97 3d 61 81 98 be 23 e8 a5 be 58 e8 eb 3d
       0.07413154 -0.29786208 -0.3240367 0.115189254
000160 53 16 2d 3e 93 32 80 3e 52 10 ba bc 3d b2 c6 3d
       0.16903047 0.25038585 -0.02271286 0.09701965
000170 83 aa d5 be 38 63 27 be 53 a2 79 be eb d1 48 3e
       -0.41731653 -0.16346443 -0.24378328 0.19611327
000180 5e 26 b0 bb ab 2b c8 be 88 dd 93 bd 93 23 44 be
       -0.0053756675 -0.39095816 -0.07219988 -0.19154195
000190 fd a4 70 bd d2 69 82 be e1 9d 9d 3e bf 95 77 3c
       -0.058751095 -0.2547136 0.30784515 0.015111386
0001a0 18 7b f8 3d 77 1c 60 3d d6 71 b4 3c 24 fe 01 3e
       0.12132853 0.054714646 0.022026937 0.12694603
0001b0 61 ef 01 3e 97 ab 91 3c 80 b2 04 be 57 25 bb 3d
       0.12688972 0.017782016 -0.12958717 0.091379814
0001c0 d8 31 02 be 68 c2 3e bd 67 1d 3f be e4 93 de bd
       -0.12714326 -0.04657212 -0.1866356 -0.10868052
0001d0 5f 35 23 3e 85 79 37 bd 3b 33 a6 3e dc 6e 1d be
       0.15938328 -0.044793624 0.3246096 -0.15374321
0001e0 ce 6d 2a 3e 5d 0d bb bd e2 90 3d bd 6c 1f 4d bd
       0.1664345 -0.09133408 -0.04628075 -0.050078794
0001f0 9b 91 78 bc df a9 b0 be cc e5 5c be b9 10 95 3e
       -0.015171434 -0.345046 -0.21572036 0.2911432
000200 64 8f 9a be 46 e0 c5 bd d2 74 5d be 18 bc b4 bd
       -0.30187523 -0.096619174 -0.21626595 -0.088249385
000210 22 82 2a bf 22 a3 3f 3d 7b da 70 be be 06 55 be
       -0.66604817 0.046786435 -0.23520844 -0.20803353
000220 47 59 22 bd 71 3e 05 3e f7 b4 80 3d 1f 4d 1b bf
       -0.039635923 0.13012101 0.06284516 -0.6066455
000230 26 8e 84 bd 04 91 9c be c9 90 b8 3d 0e 3f 1e be
       -0.06472425 -0.30579388 0.090119906 -0.15453741
000240 72 c1 51 be d7 65 4f be 44 a7 6d 3e 75 9d 4e 3e
       -0.2048395 -0.20253693 0.23208338 0.20177253
000250 9d 17 29 bf c4 74 a5 be 7a 11 a7 3d b6 ea 94 be
       -0.66051656 -0.32315648 0.0815763 -0.2908532
000260 b8 c6 d6 be f2 69 07 be 4a 0b 52 be 45 b3 d9 bd
       -0.41948485 -0.13224009 -0.20512119 -0.10629896
000270 c3 6e 7b bc be 3c b7 bd bc ba a5 3d ad 6e 33 be
       -0.015346232 -0.089471325 0.080922574 -0.17522688
000280 4d 22 4d be 2a 08 1b bf 47 b6 32 be 35 63 8d bd
       -0.20032616 -0.6055933 -0.17452346 -0.06903688
000290 98 ee 2e be 6b 08 bc 3e 35 a6 af 3c 6e 6f 5f be
       -0.17083204 0.36725172 0.021441558 -0.21819851
0002a0 ec 35 73 3e e0 a6 e7 3c 00 42 c6 be 6b 5f 11 bf
       0.23751038 0.028277814 -0.3872223 -0.5678622
0002b0 81 29 bb 3d 12 e4 c7 be f5 31 5f 3e 72 7c 9a 3c
       0.091387756 -0.3904119 0.21796401 0.018858168
0002c0 a2 c5 c1 bc 2c 4b e8 bc b8 21 fb 3d c4 1f 0e bc
       -0.023653809 -0.028356157 0.12262291 -0.008674566
0002d0 1c 88 cc bd 14 4f 3e 3e 93 ef 10 be 21 b1 17 3e
       -0.09986898 0.18584853 -0.1415389 0.14813663
0002e0 3b c0 b4 be 58 b1 41 3e f4 5b 16 bd ab d4 8b be
       -0.3530291 0.18915308 -0.036708787 -0.2731069
0002f0 2b 6f d3 be 51 2f 8d 3e c5 9f 5a 3e 7f ec a5 be
       -0.41295752 0.27575162 0.2135001 -0.32406995
000300 8a 19 4a 3e 1a 77 10 be 7a 48 2c 3d ab 28 52 be
       0.19736305 -0.14107934 0.042061307 -0.20523326
000310 ce 36 78 3e ef 86 3e be 4f 22 24 3e af b6 15 3d
       0.24239656 -0.1860616 0.16028713 0.036551174
000320 e5 f8 91 bd 19 99 0d be 9c 44 88 bd 5c ba 40 3d
       -0.07127551 -0.13827933 -0.06653711 0.047052726
000330 09 59 22 bd 6c 7b 10 be 99 a1 91 3d e8 f7 19 bf
       -0.03963569 -0.14109582 0.071109004 -0.601439
000340 39 4a c9 be 5d ba 33 bc d3 08 c4 3d b5 f2 87 3e
       -0.3931444 -0.010969725 0.095719956 0.26552358
000350 4d 26 2a 3e 03 67 57 3c 49 44 00 3f 74 eb 21 3e
       0.16616173 0.0131471185 0.50104195 0.15812474
000360 78 54 e0 be 58 2d 08 bc b6 93 bc bd c9 f4 21 3b
       -0.43814445 -0.008311592 -0.09207861 0.0024712554
000370 bf b2 49 3e f8 e3 d6 bd 6c 87 a2 3d 4b 20 69 bd
       0.19697092 -0.104927 0.07935986 -0.056915563
000380 d1 ec e3 be 92 81 60 3e 38 b7 78 be e1 a1 92 3e
       -0.44516614 0.21924427 -0.24288642 0.2863913
000390 fc d3 96 3c 84 92 00 be 9b 8a 4e bd 25 72 6d 3d
       0.018411629 -0.12555891 -0.050425153 0.057970185
0003a0 3a c5 9a 3d c4 73 a2 3e bc 87 57 3e ce 77 04 bf
       0.07557149 0.31728947 0.21047872 -0.5174531
0003b0 7f f5 4c 3d ec 0a d0 be 4d 28 c6 3e 76 a2 e3 3d
       0.05003881 -0.40633333 0.38702622 0.11114971
0003c0 c1 02 70 bd 98 08 3a bd ea 96 96 be c0 75 0d 3e
       -0.058596376 -0.045418352 -0.29412013 0.1381445
0003d0 1d ab db 3c d3 72 ad 3d bf 33 2d bd 2c ca 08 3e
       0.026814992 0.084691666 -0.042285677 0.13358372
0003e0 6b b8 29 3e 13 d9 06 3d 88 78 d0 3d 73 1a 43 3c
       0.16574256 0.03292186 0.101792395 0.011908161
0003f0 f3 66 06 3f 25 ab f0 3d 89 b3 bc 3e 1b 14 00 bf
       0.5250084 0.11751393 0.36855724 -0.5003068

actor.4.bias f4 [128]
000000 06 b1 f7 bd 69 79 23 be 7e 5f f0 bd c2 ef 08 be
       -0.120943114 -0.15964283 -0.11736964 -0.1337271
000010 75 cb 91 3d 7a d1 97 3e 1f 31 cd 3d d3 13 4d be
       0.071188845 0.29652005 0.10019135 -0.20027094
000020 e6 99 4b 3d 96 d2 e0 be cd 0c 4b be 81 3d 1c 3e
       0.049707316 -0.43910664 -0.19829102 0.15257837
000030 ab d6 b8 bd e6 01 cf bd 55 21 3d 3e ec ed b1 bd
       -0.0902532 -0.10107784 0.18469746 -0.08687958
000040 61 10 94 be ba 42 6b be d1 9a 9c be 6c 23 ed 3e
       -0.28918746 -0.22974673 -0.30586866 0.46316087
000050 94 1c 82 3e 2f 27 85 be 99 03 a8 be f4 c6 ac 3d
       0.25412428 -0.26006457 -0.32815245 0.08436385
000060 e2 ff 2f be ef 2c 1d bd b2 74 a4 3e 3b 42 40 3e
       -0.17187455 -0.03837293 0.3212028 0.18775265
000070 34 f9 b1 3e 2c 85 f5 be 6f 16 de 3d ef 3c 28 bc
       0.3476044 -0.47953165 0.108441226 -0.010268434
000080 44 62 4b 3e 20 fe 53 3d 19 23 d4 be 18 9e 83 bb
       0.19861704 0.051756024 -0.41433027 -0.004016649
000090 a6 89 a1 be c8 e1 c7 bd e4 43 b6 3e ad 27 49 bd
       -0.3155033 -0.09759861 0.3559867 -0.049110103
0000a0 31 e3 f3 3c 8b 74 1d be 98 f6 78 be 8d eb ca 3d
       0.02977142 -0.15376489 -0.24312818 0.09908209
0000b0 5f 03 bc be 95 ab f9 bd 41 22 57 bd 5e 19 a6 bd
       -0.36721322 -0.1219093 -0.0525229 -0.08110307
0000c0 4b 0f 92 3e 9c 93 3a 3d bc bd d0 3d 87 31 57 3d
       0.28527293 0.045550928 0.10192439 0.052537467
0000d0 ec 8c 83 3c c6 a9 af 3c 44 03 71 3d 5a e2 c2 3e
       0.016058408 0.021443259 0.058841005 0.38063318
0000e0 e3 93 a2 3e 8c 25 39 bd a2 a0 df be b7 98 ee be
       0.31753454 -0.045201823 -0.4367724 -0.46600887
0000f0 06 ef 36 3e a7 70 37 3e 28 ea de be 7b 75 cc 3d
       0.17864618 0.17914067 -0.43538022 0.09983345
000100 9e 8b c1 3d fb 2d 0a 3e f7 4b c7 bd 30 33 c9 be
       0.09450458 0.13494103 -0.09731286 -0.39296865
000110 78 83 88 be 00 a0 f2 bd 48 f4 72 bd e3 ba 2d 3e
       -0.26662803 -0.11846924 -0.059314996 0.16965823
000120 e7 9f 30 3e e1 05 da 3e 72 8d e0 3c 22 62 1c be
       0.17248498 0.4258261 0.027411196 -0.1527181
000130 b3 cd 1f be 50 a5 df 3e c5 47 f6 3d b9 89 5d 3c
       -0.15605812 0.4368081 0.12025408 0.013521605
000140 ec f2 8d 3d 2a 9e fc 3e 3e 6a b4 be f7 33 6c be
       0.06931099 0.4933942 -0.35237306 -0.23066698
000150 50 35 69 be c7 4c b1 3d 43 d2 1d bf a7 82 71 be
       -0.22774243 0.08657222 -0.6164896 -0.23584996
000160 6d db fa 3e 6e a6 f4 be aa 20 89 be a2 f4 3e 3e
       0.48995534 -0.47783226 -0.26782733 0.18648008
000170 f9 7a a1 3e 1d 39 7d be 13 38 d0 3d 92 6c 44 3d
       0.31539133 -0.24728818 0.10166945 0.047955103
000180 67 20 97 be 1d b2 0a be f9 78 9c be 70 61 57 bd
       -0.2951691 -0.13544507 -0.30561045 -0.052583158
000190 15 98 e4 be 4d d0 6d bd 73 68 25 3d 88 b6 68 be
       -0.4464728 -0.05805998 0.040382814 -0.2272588
0001a0 e0 17 9e be 2d 08 16 3e 34 08 24 3e a5 7d 6d be
       -0.3087759 0.14651556 0.16018754 -0.23192461
0001b0 48 c7 88 be cc d6 99 3e b4 fa 92 be 9d 2d ba 3e
       -0.2671454 0.3004669 -0.28706896 0.36362925
0001c0 cd df cd bd 6e 2e 8c be 40 9f 12 be c0 8d 25 be
       -0.10052452 -0.27379173 -0.14318562 -0.16167355
0001d0 19 86 db 3e 38 60 a3 3d a2 b2 17 3e 25 d0 af 3b
       0.42875746 0.07977337 0.14814237 0.005365389
0001e0 b9 8d 25 be ce 26 39 3e 0f 1d 0e bf 24 5a 8d 3e
       -0.16167344 0.18081209 -0.5551309 0.27607834
0001f0 9e 4b 8b 3d c5 18 0c 3e b2 17 d0 3b 3a a6 cc be
       0.06801532 0.13681324 0.006350481 -0.3997057

actor.6.weight f4 [12, 128]
000000 d5 62 44 3e 1f 66 ab bd df a9 43 3e 78 38 26 be
       0.19178326 -0.083690874 0.1910777 -0.16232479
000010 15 ca c0 3d 69 bd 94 3c 46 e0 31 3e cc f9 31 3d
       0.09413544 0.018156724 0.1737071 0.043451115
000020 e8 6f f9 bd 0b 8f ab 3d 3c 8c 7e 3a 98 31 9b 3e
       -0.121795475 0.08376893 0.00097102276 0.30311275
000030 c1 2f 96 3b 0b 41 2e 3e 22 cb 09 bd 68 de 16 3e
       0.0045833294 0.17017 -0.03364099 0.14733279
000040 6c 29 7b 3d ef aa 87 bd 64 f8 5b be 35 b1 97 3d
       0.0613188 -0.066244 -0.21481472 0.074068464
000050 a9 b3 be 3e ac ce 0c bd 04 89 35 bf 7a e8 f4 bd
       0.37246445 -0.034376785 -0.70912194 -0.11958404
000060 50 c1 0a 3d 4c 1b 40 3d 27 19 1e bc df ce 64 bd
       0.033875763 0.046901032 -0.0096495515 -0.05586135
000070 4d cb e4 3d e5 6c ad 3d 34 f5 4a 3e 1d 2c ad 3d
       0.11171589 0.084680356 0.198201 0.084556796
000080 01 26 23 bd 6e 26 15 3d 5f 36 24 bc f2 6d ae 3e
       -0.039831165 0.036413603 -0.010022729 0.34068257
000090 78 25 73 be 52 ef 95 bd 19 82 28 3e 00 7d c2 bd
       -0.23744762 -0.07321037 0.16455878 -0.09496498
0000a0 12 90 9b bd bf f6 50 bd e8 c2 d6 bd bf 46 20 be
       -0.075958386 -0.051016565 -0.10486394 -0.15651987
0000b0 95 8f c9 ba 63 fe ad 3d dc 22 93 3d 87 97 da 3d
       -0.0015377874 0.08495786 0.07184383 0.10673433
0000c0 1f ff 29 3e 43 a5 d4 3d 88 fb da 3e bf f5 38 be
       0.16601227 0.10383084 0.42770028 -0.18062495
0000d0 58 b6 7c 3e 01 4f 46 be cf 73 85 be ae 52 38 3e
       0.24678934 -0.19366075 -0.26064917 0.1800029
0000e0 47 dd 28 3c 53 44 2a 3d ab 12 ae 3d 86 79 72 3d
       0.010306663 0.041569065 0.084996544 0.059197925
0000f0 8b 63 20 3d f4 89 01 3e 8a 82 78 be 1b a5 3a 3d
       0.03915743 0.12650281 -0.24268547 0.045567613
000100 f5 35 6b 3e 35 f4 c4 3d 29 01 0a be 61 a4 a1 bd
       0.22969802 0.09616891 -0.13477005 -0.07892681
000110 cf c1 54 be 63 a5 a2 be 66 b9 f1 3d 38 f5 4f 3e
       -0.20777057 -0.31766805 0.1180294 0.20308387
000120 21 f4 46 3e 57 d1 b3 3d 8e 0d ba 3d 64 1b 6a be
       0.19429065 0.08780163 0.090846166 -0.22862011
000130 fb a1 0a 3e bf 36 c7 3c 76 96 35 3e 70 7e 10 bf
       0.13538353 0.024318097 0.17733178 -0.5644293
000140 e6 21 42 bf b9 de 1f 3e 05 9c 71 be ca cf 4e 3d
       -0.75832975 0.15612306 -0.23594673 0.05049113
000150 2b 25 e6 3d 59 27 66 3e 4c dd 04 3e d5 4b c7 3d
       0.11237558 0.22475947 0.12975043 0.09731261
000160 02 7f 85 bc 0e 8b 6a bc 76 2c 19 bc a9 c0 92 3d
       -0.016295914 -0.01431538 -0.009348979 0.07165653
000170 9e 1b ab 3d ea e7 1f 3e c6 26 4e 3d fc a4 8a bd
       0.08354877 0.15615812 0.050329946 -0.067697495
000180 f4 f4 fc bd fd d5 4d 3d 6e a2 d9 3d 58 07 1b 3e
       -0.123514086 0.050252903 0.10626684 0.1513952
000190 fb 31 5f be 4d cb b1 be ea c9 7a 3b 24 d5 f2 3d
       -0.2179641 -0.3472542 0.0038267323 0.118570596
0001a0 5f 94 b7 3d ce 76 c3 3d ec 50 d5 be 83 bc a1 bd
       0.089638464 0.095441446 -0.416633 -0.07897284
0001b0 30 b6 57 be 02 d6 14 bd 22 16 53 3d 73 d1 ce 3e
       -0.21065593 -0.036336906 0.05153478 0.40394172
0001c0 b2 26 c6 3d 77 8d ca be 12 35 22 3d 57 91 61 3e
       0.09675349 -0.39561054 0.039601393 0.22028099
0001d0 c4 63 2e be 08 15 64 3d 8d a7 6c bd 0a d1 63 3e
       -0.17030245 0.05568412 -0.057776976 0.22247711
0001e0 e7 c6 a2 bd ba 39 f9 bd 41 35 ac 3d 34 ff 84 bd
       -0.07948094 -0.121692136 0.08408595 -0.06493989
0001f0 8b 7b d2 bd 05 0a e0 3d be 08 d3 be e0 05 c3 bd
       -0.1027747 0.10939411 -0.41217607 -0.09522605
000200 43 3a b4 bd 4e e8 a4 be 94 74 0d 3d d3 72 96 3a
       -0.08800175 -0.32208484 0.034535006 0.0011478312
000210 85 91 b4 3d 6e 6b 83 be ce e7 b9 bc 64 6c b5 3d
       0.08816818 -0.256679 -0.02269354 0.088585645
000220 c3 59 bf bc be 54 7b 3e 01 dc 80 bc 6b 50 88 bd
       -0.023358231 0.24544045 -0.015729906 -0.066559635
000230 2b 0e 68 bc 9c 3f 8c 3e a1 13 06 3e 54 55 1a be
       -0.014163534 0.2739228 0.13093425 -0.15071613
000240 7e 3f 33 3e d6 8d f6 bc 80 64 81 be b5 ec 06 be
       0.17504689 -0.03009693 -0.25271988 -0.13176234
000250 2a 5b c0 bd 80 14 08 be b4 d8 4d 3e c6 50 55 be
       -0.09392388 -0.1328907 0.20102197 -0.20831594
000260 66 91 23 3e 78 24 93 3c e9 d7 c1 bc f5 8b 15 be
       0.15973434 0.017961726 -0.023662524 -0.1460417
000270 75 41 e9 3b 06 9a a7 bd 8b 6b 11 bd 8c 18 be 3d
       0.007118399 -0.081836745 -0.03550295 0.09282026
000280 ec b0 f0 3c 08 03 22 bd e3 8d b0 bc cb ae a9 3c
       0.029381238 -0.039553672 -0.021552032 0.02071323
000290 c4 07 7b 3f 8a 1f 92 bd bd a9 da 3b 1a 9b 25 3c
       0.98058724 -0.07134922 0.0066730664 0.01010778
0002a0 26 66 b6 be b2 55 30 3e d3 f6 91 3e e0 0f 20 3f
       -0.35624808 0.1722019 0.28508624 0.62524223
0002b0 6c d3 d4 bd 49 42 0d be 3c 44 3f be f4 1d e9 3d
       -0.10391888 -0.13794817 -0.18678373 0.11382666
0002c0 72 3a 60 3e 52 c7 42 be 5c 7b 8f be 1a 81 b3 3e
       0.21897295 -0.19021347 -0.28023803 0.35059434
0002d0 c2 86 88 be bd 98 81 be f1 96 88 be e4 ed 20 3d
       -0.26665312 -0.25311843 -0.2667766 0.03928937
0002e0 46 69 e5 bd 4d 3c 17 bf a6 b1 14 3e ba 2a d2 3d
       -0.1120172 -0.59076387 0.14520893 0.10262056
0002f0 60 25 15 be b2 e2 7c be 45 63 8c 3d eb 69 af bc
       -0.14565039 -0.24695852 0.06854872 -0.02141281
000300 2c 71 c6 3c 41 e1 13 be 48 3a bc be 82 4f 9c bb
       0.024223886 -0.14441396 -0.36763215 -0.0047702203
000310 02 2f 2d 3e 78 e8 94 3d 8b dc 56 bd c0 96 05 bf
       0.16912463 0.072709024 -0.05245642 -0.5218315
000320 51 c2 fa bd 76 b9 98 3d 12 b5 bb bd 9c 92 84 bc
       -0.12244094 0.07457249 -0.09165396 -0.01618319
000330 1c 71 a2 be 05 77 23 3c 9e fa 7f bd c3 6e 4f 3e
       -0.3172692 0.009977107 -0.062494867 0.20257096
000340 e1 b2 5e 3e 3c c1 b9 3c 8b 4c 1d 3e 2c ae ba 3d
       0.21747924 0.02267515 0.1536123 0.09115252
000350 c2 32 1a 3e 5f 8c 92 3d 55 ef cb 3d 8f eb ca bd
       0.15058425 0.0715568 0.09957758 -0.099082105
000360 e1 cd 5f be 4e 4a 16 3e d4 c4 9d bd 6a 85 35 3d
       -0.2185588 0.14676782 -0.077035576 0.044316687
000370 1e b3 5c 3d 33 66 9d 3d 0f 47 20 3e 48 00 02 3e
       0.053881757 0.076855086 0.15652107 0.1269542
000380 81 86 18 be 8f b6 29 be be 83 04 bc ba 72 32 be
       -0.14895059 -0.16573547 -0.00808805 -0.17426577
000390 2e f9 fc 3d 4a 88 1f 3e c5 5d ca 3d cb 03 67 bc
       0.12352215 0.15579334 0.09881166 -0.014100025
0003a0 c2 58 2f bd af 8c 8e 3d 11 0b da 3c c9 30 65 3e
       -0.042809255 0.06960427 0.026616605 0.22381891
0003b0 0e ee 76 be 42 d2 a1 bd e7 33 3c be 1f 75 bf 3d
       -0.24114248 -0.079014316 -0.18379174 0.09348511
0003c0 c0 70 88 bd 78 ca 49 be 43 79 8f be 60 00 2e 3e
       -0.0666213 -0.19706142 -0.28022203 0.1699233
0003d0 a4 7d 02 be 4f ad 97 bd a7 c6 88 3e 26 c7 65 3c
       -0.1274324 -0.07406103 0.2671406 0.0140245315
0003e0 d1 1b 8f 3c 47 4f 2e 3f 26 0b 81 3e 76 b7 83 be
       0.017469319 0.6808972 0.25203818 -0.25725907
0003f0 be 36 60 3e ed 0d 53 bc 5a 4e d4 bd 03 e2 5f bb
       0.21895882 -0.012881738 -0.10366507 -0.0034161813

actor.6.bias f4 [12]
000000 e6 2d 55 3e 4d 92 1e be b8 e6 91 3e 01 7c c9 be
       0.2081829 -0.15485497 0.28496337 -0.3935242
000010 ff 44 c8 ba da 49 2e 3e c5 31 1e 3f 7c 5e 03 3f
       -0.0015279352 0.1702036 0.6179469 0.51316047
000020 cb 42 b3 be 63 d3 a1 be 78 4b dd be 0e 3a 92 be
       -0.35011896 -0.31606588 -0.4322164 -0.28559917

critic.0.weight f4 [128, 48]
000000 dd ca a4 be a4 22 66 be 5c 5f c6 bd 8f 8e a5 3c
       -0.32186022 -0.22474152 -0.09686157 0.020209579
000010 6b a1 3d 3c 9c 8b 60 bb 2e f9 23 be 68 42 17 bd
       0.01157413 -0.0034262901 -0.16013023 -0.036928564
000020 bd 9b e5 bc ab 18 0f 3f 15 6b 63 3f da e2 84 3e
       -0.028028363 0.55897015 0.8883527 0.25954324
000030 d6 8b 45 bc 2c 75 22 be b2 91 a2 3d 60 13 1d be
       -0.012057265 -0.1586501 0.079379454 -0.15339422
000040 dc 1c 12 be f3 50 6a 3d b4 e0 a2 3d 57 b8 a2 3d
       -0.14268821 0.057206105 0.07953015 0.07945316
000050 d9 4e 18 be 8e d0 03 3e 16 ca a8 bd eb 92 d7 bd
       -0.14873828 0.12872526 -0.0824167 -0.10526069
000060 67 1a 88 3c 58 0f 6b 3b b2 0a b1 bc 4e 7d f3 bb
       0.016614152 0.00358673 -0.021611545 -0.007430709
000070 78 0b 98 3b ff 3b c4 bb bd ae a9 ba 64 7e 88 b9
       0.004640039 -0.0059885974 -0.0012945753 -0.0002603411
000080 93 1c b3 bb 7f 5f 3e bb fc 4e c0 3b 9d 95 b8 bb
       -0.005466053 -0.002904862 0.0058687907 -0.0056330697
000090 c2 5a 3a bb 10 06 70 3d e1 34 8f 3d ee 1a 3f 3d
       -0.0028435444 0.05859953 0.06992508 0.04665654
0000a0 b7 cd d2 3c c5 01 7e 3d 52 14 36 ba 4d 86 86 3d
       0.025732858 0.062013406 -0.0006945777 0.065685846
0000b0 1a 41 d8 bc d7 51 2a 3c 4d 7a f8 bc eb f9 99 bd
       -0.02639823 0.010395489 -0.030331755 -0.07518371
0000c0 e7 f5 4f be b8 70 97 bd 6c ee c2 be 02 8e 39 3a
       -0.20308648 -0.07394546 -0.38072526 0.0007078351
0000d0 60 9f 88 3d b9 bd 48 3d 0d a4 f0 3e 70 b0 ae 3e
       0.06671023 0.04900906 0.4700016 0.34118986
0000e0 6f 11 e4 3d 2f 8e 18 3e 98 50 dd bb e4 70 1c 3e
       0.11136138 0.14897989 -0.0067539923 0.1527744
0000f0 8c 65 db 3d 17 3d 18 3b e7 0f 50 3e da 0f 36 3d
       0.10712728 0.0023229772 0.20318566 0.04444871
000100 31 4d 23 3e 3d 5a ce be 39 4f 7c 3e ad c7 87 3e
       0.15947415 -0.4030322 0.24639596 0.26519528
000110 dc 7f 41 bd 71 ce c1 be 7a ac fa 3c fc 9d 17 bc
       -0.047241077 -0.37852815 0.030599821 -0.009253975
000120 84 f5 b4 3c ba 0a ff 3a 7c 2c 73 bc 73 20 8d bc
       0.022089727 0.0019458153 -0.014842149 -0.017227387
000130 0a 07 cf 3a db e4 04 bc ce bd b2 bb 97 49 1d 3c
       0.0015794944 -0.008111204 -0.0054547554 0.009600065
000140 94 a2 89 bc 63 a5 e3 bb 20 0f e4 3b d1 18 0f 3b
       -0.016801156 -0.006947206 0.006959811 0.002183486
000150 5d 68 9f 3c 7a f2 0a 3d b9 ba 61 3b af 85 7f 3b
       0.019458944 0.03392265 0.003444357 0.0038989594
000160 4c fc 2b bd ea e8 cc bc ac 1d 46 3b 0a c7 2f bc
       -0.041988656 -0.025013406 0.0030230088 -0.010728607
000170 b3 16 d6 3c df a9 04 bd ae 46 4f bc 17 df e5 bc
       0.02613387 -0.032388564 -0.012651129 -0.02806048
000180 ff 13 8b 3d bf 46 e7 bc 09 c9 de 3e 2a d9 91 3d
       0.06790923 -0.028231977 0.43512753 0.07121499
000190 5f b4 5b bd f7 43 b1 bd 5a d1 38 3e 76 03 0d be
       -0.053638812 -0.086555414 0.18048611 -0.13770851
0001a0 4d a9 20 be b0 84 bf 3e 6a b5 ed 3e 6c 10 8f 3e
       -0.15689583 0.3740592 0.4642747 0.27942216
0001b0 15 eb 81 bd 94 d8 87 3e 12 b7 20 bd 9d ab 18 bc
       -0.063436665 0.26532423 -0.03923709 -0.00931826
0001c0 ab 2f 3b bf f4 5f a6 3d 5c d5 ca 3d 29 86 00 be
       -0.7311961 0.0812377 0.09903976 -0.12551178
0001d0 e4 3f 47 3d 7d 27 29 3e 63 59 33 be 0f 9e b9 bc
       0.048644915 0.1651897 -0.17514567 -0.022658376
0001e0 8e 18 e1 3b f0 87 c9 3c 81 2c e5 3b 65 37 2b bb
       0.006869382 0.024600953 0.0069938307 -0.0026125547
0001f0 ff 4c ed 3b 5a c2 68 bc 6d 93 bd bc b2 88 78 3b
       0.0072418447 -0.014206493 -0.023141587 0.0037923274
000200 6b f9 d5 bc 7e a5 1a 3c b3 8b 15 3c 7e ff a8 3b
       -0.026119908 0.0094388705 0.009127545 0.00515741
000210 80 14 6f 3d b8 a4 f8 3d a2 2f e7 bd 83 cf 23 3b
       0.05836916 0.121407926 -0.11288382 0.0024995513
000220 5a 72 74 bd 29 c3 9e bd f1 c6 12 bd 36 f2 93 bd
       -0.059679367 -0.077520676 -0.035834257 -0.072239324
000230 b0 18 c5 3d 13 f6 95 bc 97 10 be 3d 9d 94 38 bc
       0.096238494 -0.018305814 0.09280508 -0.011265901
000240 18 ff 90 3e 72 71 22 be 9d 77 9d be ab 04 6c 3d
       0.2831962 -0.15863588 -0.3075532 0.05762164
000250 9a 1e 8e bd 4a 0a 1f bd b6 8e 81 be 47 6d ce bd
       -0.069394305 -0.03882817 -0.25304192 -0.10079437
000260 9c 19 7e bd 34 ac aa bc 23 a0 a6 3e f7 8a 37 3f
       -0.06203614 -0.020834066 0.3254405 0.7169642
000270 f3 21 50 be 1c d5 90 3e f5 e0 2b be 84 bd 49 3e
       -0.2032545 0.2828759 -0.16785033 0.197012
000280 82 3c 1d bd 7c ae 16 3e db 51 2c bd e6 de 85 3c
       -0.038387783 0.14714998 -0.04207025 0.016341638
000290 b6 7b 23 3b 75 4c 0d 3e f2 8c f6 3c 7f 5b 35 3d
       0.0024945564 0.13798697 0.030096505 0.04427671
0002a0 fe 6e 88 3c 82 b6 c8 bc 77 bc c0 3c 0f 44 06 b9
       0.016654488 -0.024501089 0.023527367 -0.0001280459
0002b0 9e 41 9d 3c 32 48 88 bc e8 18 50 3b 6d cc 72 bc
       0.019196328 -0.016635988 0.0031753127 -0.014819247
0002c0 2d 86 17 3d 29 cc 17 3c b2 d7 c7 bb 77 90 17 bb
       0.036993194 0.009264984 -0.006098711 -0.002312688
0002d0 e3 bc 4b bd 46 1f 4e 3d 09 c0 8b 3d 30 98 e6 3d
       -0.049740683 0.050322793 0.06823737 0.11259496
0002e0 c7 6e 9d bd 65 89 91 3b 26 75 ee bc 68 52 8a 3c
       -0.07687145 0.0044414275 -0.029108595 0.016884997
0002f0 e6 46 0f be ee f3 2b bd 5b 78 71 bd 48 40 8a 3c
       -0.1399189 -0.041980676 -0.05895267 0.016876355
000300 54 38 b9 be d7 40 83 3d 74 ce 41 3e e8 2c a6 bd
       -0.36175787 0.064088516 0.18926412 -0.08114034
000310 b2 75 16 3d 4b e4 4b 3d df a1 b3 bd 2a dc 8a 3e
       0.036733337 0.049778264 -0.08771109 0.27121097
000320 d9 4e db bd c2 cb 90 3d 68 51 32 3f e5 b9 8d be
       -0.10708398 0.07070114 0.69655466 -0.2768089
000330 58 ac 8a be 3a 0c f8 3d 9b 43 c2 3d cb cd 1b be
       -0.27084613 0.12111707 0.09485551 -0.15215223
000340 c6 58 da 3d 8d 92 da bc ac 67 8b bd cc 1d aa 3d
       0.106614634 -0.026681209 -0.06806883 0.083064646
000350 2e 8b 07 bd 07 1d 61 3d 39 95 1c bd e9 e3 f0 bd
       -0.033091716 0.054959323 -0.038228247 -0.117622204
000360 85 d0 e3 bc 72 87 39 3c 0d 86 86 3c 00 4b 41 3c
       -0.02780939 0.011323797 0.016421342 0.011797667
000370 2d 63 80 bc d4 83 2b b9 d6 1d 7b 3c b0 37 86 3a
       -0.01567229 -0.0001635694 0.015326938 0.0010239985
000380 68 c2 87 3c 78 e3 4e 3d eb 29 95 3b f2 3c 32 3b
       0.016572192 0.0505099 0.004552116 0.002719697
000390 a7 6b 9a 3c 43 a6 94 bd d6 d0 9e bd aa 7d 08 3c
       0.01885016 -0.072582744 -0.07754676 0.008330742
0003a0 d5 dd 73 3d c0 24 f7 3c c7 e0 db bc 06 06 9c bd
       0.059537727 0.030168891 -0.02684058 -0.076183364
0003b0 32 a7 f0 bc ea e1 14 be bc 5a 6c 3d bb 2a c5 3c
       -0.0293766 -0.14539304 0.05770372 0.024068227
0003c0 70 fc b7 3e b1 1b 36 be c1 1c 44 3f 93 76 15 3d
       0.35934782 -0.17784001 0.76606375 0.036490034
0003d0 35 77 c9 3d d2 9c 87 be 05 65 6c bd 18 c4 73 be
       0.0983719 -0.26486832 -0.057713527 -0.23805273
0003e0 e5 d4 19 be c8 a1 fa be 04 78 ac bd 78 95 17 3f
       -0.15022619 -0.48951554 -0.08421329 0.59212446
0003f0 e8 f5 da 3d 3f ba d3 3c 7f 00 b1 bd ba 3d af bd
       0.10691434 0.025845645 -0.08642673 -0.08556695

critic.0.bias f4 [128]
000000 79 e0 a8 3e 0d 8e ea be 5a 3c da 3e 7b 55 d2 3e
       0.3298376 -0.458115 0.4262417 0.4108084
000010 d6 9c 7a 3d 50 1e e4 3e af ce 1f be 5b 6d 0a 3e
       0.061184727 0.44554377 -0.15606187 0.13518278
000020 93 08 ce 3e 93 dd ac be 89 9c a2 3e b7 3a b9 be
       0.40240917 -0.33762798 0.31760052 -0.36177608
000030 d3 b1 98 be 6f 96 30 3e 0f ef 36 3e e3 78 5e 3e
       -0.2982317 0.17244886 0.17864631 0.21725802
000040 79 9a ad be 5e d1 a0 be 8c 41 b3 3e 65 71 88 3e
       -0.33906916 -0.31409734 0.35010946 0.26649013
000050 51 37 19 bf 2f 05 d6 be e3 42 4d 3d b6 9e 82 3e
       -0.5985003 -0.4180083 0.050112616 0.25511712
000060 00 9c cd 3e 32 c1 c1 be 9d 16 75 be 79 48 b6 bd
       0.4015808 -0.3784271 -0.23934408 -0.08900542
000070 44 53 99 bd 15 35 9a 3e b4 42 a3 3e f0 d0 e6 be
       -0.07486585 0.30118623 0.31886828 -0.45081282
000080 4d 70 57 3e 75 c0 f2 be 11 dc 32 be dc 86 c1 3e
       0.21038933 -0.47412458 -0.17466761 0.37798202
000090 f4 d9 bb 3e 56 e9 be 3e 2a b0 ac 3e d1 e4 3c be
       0.36689723 0.37287396 0.33728153 -0.18446662
0000a0 b9 c3 32 3e bb 00 e3 be 93 8f 7c be 08 13 2e 3c
       0.17457475 -0.44336495 -0.24664144 0.010624655
0000b0 e5 92 c5 be dd 41 d2 bd c2 9a 7b be 0b f5 e6 be
       -0.38588634 -0.10266469 -0.24570754 -0.45108828
0000c0 0a a7 ce bd 15 7e 61 bd 86 fc 81 3e 78 b2 86 be
       -0.10090454 -0.05505188 0.25387973 -0.26308036
0000d0 ef 83 2f be ee c1 74 be 9b 72 79 3e 08 e6 e0 be
       -0.17140172 -0.23902103 0.24360125 -0.439255
0000e0 4c 59 b6 be a0 16 b5 be c9 dc 9f be 5d 1d 15 bd
       -0.35615003 -0.35368824 -0.31223133 -0.036404956
0000f0 a8 53 8e be 53 7d a4 3e bf 9a 6d be 93 d1 a6 be
       -0.277982 0.32126865 -0.23203562 -0.32581767
000100 51 9c 3a be 61 d1 a3 be c4 3c 4d be 6f d6 6b 3e
       -0.18223692 -0.3199568 -0.20042711 0.23031019
000110 af ea 41 be 53 bb 70 be 48 e7 c3 3d 75 c1 b8 be
       -0.18937181 -0.23508959 0.09565598 -0.36085096
000120 ef 5e b7 3e ef fc ae 3e fe 37 3b be 4e b9 be be
       0.35814616 0.34177348 -0.18283078 -0.3725075
000130 b4 85 4d be 15 74 a9 3e 86 79 8b be 70 c3 8d 3e
       -0.20070535 0.33096376 -0.27241153 0.2768817
000140 9f ff c8 3e fd a7 5c 3b 61 18 ce 3e 3a 68 66 3e
       0.39257523 0.0033669465 0.40252975 0.22500697
000150 70 cc f7 3e d3 2f 8c bd 83 8b 2c 3d 22 24 f6 bd
       0.4839816 -0.06845059 0.042125236 -0.120186105
000160 32 9c e5 bd 6e b4 a2 be cb a6 95 be 18 2b 1a be
       -0.112114325 -0.31778282 -0.29228815 -0.15055501
000170 2c 4c c6 be 1f df 94 bd 25 f9 bb 3e f0 c5 2c be
       -0.3872999 -0.072691195 0.3671352 -0.16872382
000180 0b 04 61 be 40 75 9c 3e 47 07 a8 be af c5 99 be
       -0.21974199 0.30558205 -0.32818052 -0.30033633
000190 33 ab c4 3d 51 92 53 3e ff 36 73 be a4 f4 0d 3b
       0.09602966 0.20661284 -0.23751448 0.002166071
0001a0 c2 ff b5 be fc e8 c4 3e cb 0b 5b bd f1 dc 97 be
       -0.3554669 0.38459003 -0.053478044 -0.29660752
0001b0 3a c7 3d 3e a9 69 b4 be 1b 4a 9b be b9 a1 8c be
       0.1853303 -0.35236862 -0.30329975 -0.27467135
0001c0 28 68 4a be af 1c 99 be 16 31 24 3e 8a 90 27 bf
       -0.19766295 -0.29904696 0.1603435 -0.65454924
0001d0 7c 2b f6 be ba ef 31 be 1e 1b ec be de aa 6f 3e
       -0.4808005 -0.17376605 -0.4611444 0.23405024
0001e0 c0 c0 01 be 6a 34 ce be e6 de 9c bc fe b5 d4 bc
       -0.12671185 -0.40274364 -0.019149255 -0.025965687
0001f0 af b4 ef 3d 63 93 66 be db 53 36 be 52 9d 4f 3e
       0.117043845 -0.22517161 -0.17805426 0.20274857
